layer {
  name: "data"
  type: "Data"
  top: "data"
  data_param {
    source: "./data/data_val_lmdb"
    batch_size: 10
    backend: LMDB
  }
}
layer {
  name: "label"
  type: "Data"
  top: "label"
  data_param {
    source: "./data/label_val_lmdb"
    batch_size: 10
    backend: LMDB
  }
}
layer {
  name: "s1_conv1_1"
  type: "Convolution"
  bottom: "data"
  top: "s1_conv1_1"
  convolution_param {
    num_output: 64
    pad: 1
    kernel_size: 3
    group: 1
    stride: 1
    weight_filler {
      type: "xavier"
    }
    bias_filler {
      type: "constant"
      value: 0.0
    }
  }
}
layer {
  name: "s1_relu1_1"
  type: "ReLU"
  bottom: "s1_conv1_1"
  top: "s1_conv1_1"
}
layer {
  name: "s1_batch1_1"
  type: "BatchNorm"
  bottom: "s1_conv1_1"
  top: "s1_batch1_1"
}
layer {
  name: "s1_conv1_2"
  type: "Convolution"
  bottom: "s1_batch1_1"
  top: "s1_conv1_2"
  convolution_param {
    num_output: 64
    pad: 1
    kernel_size: 3
    group: 1
    stride: 1
    weight_filler {
      type: "xavier"
    }
    bias_filler {
      type: "constant"
      value: 0.0
    }
  }
}
layer {
  name: "s1_relu1_2"
  type: "ReLU"
  bottom: "s1_conv1_2"
  top: "s1_conv1_2"
}
layer {
  name: "s1_batch1_2"
  type: "BatchNorm"
  bottom: "s1_conv1_2"
  top: "s1_batch1_2"
}
layer {
  name: "s1_pool1"
  type: "Pooling"
  bottom: "s1_batch1_2"
  top: "s1_pool1"
  pooling_param {
    pool: MAX
    kernel_size: 2
    stride: 2
  }
}
layer {
  name: "s1_conv2_1"
  type: "Convolution"
  bottom: "s1_pool1"
  top: "s1_conv2_1"
  convolution_param {
    num_output: 128
    pad: 1
    kernel_size: 3
    group: 1
    stride: 1
    weight_filler {
      type: "xavier"
    }
    bias_filler {
      type: "constant"
      value: 0.0
    }
  }
}
layer {
  name: "s1_relu2_1"
  type: "ReLU"
  bottom: "s1_conv2_1"
  top: "s1_conv2_1"
}
layer {
  name: "s1_batch2_1"
  type: "BatchNorm"
  bottom: "s1_conv2_1"
  top: "s1_batch2_1"
}
layer {
  name: "s1_conv2_2"
  type: "Convolution"
  bottom: "s1_batch2_1"
  top: "s1_conv2_2"
  convolution_param {
    num_output: 128
    pad: 1
    kernel_size: 3
    group: 1
    stride: 1
    weight_filler {
      type: "xavier"
    }
    bias_filler {
      type: "constant"
      value: 0.0
    }
  }
}
layer {
  name: "s1_relu2_2"
  type: "ReLU"
  bottom: "s1_conv2_2"
  top: "s1_conv2_2"
}
layer {
  name: "s1_batch2_2"
  type: "BatchNorm"
  bottom: "s1_conv2_2"
  top: "s1_batch2_2"
}
layer {
  name: "s1_pool2"
  type: "Pooling"
  bottom: "s1_batch2_2"
  top: "s1_pool2"
  pooling_param {
    pool: MAX
    kernel_size: 2
    stride: 2
  }
}
layer {
  name: "s1_conv3_1"
  type: "Convolution"
  bottom: "s1_pool2"
  top: "s1_conv3_1"
  convolution_param {
    num_output: 256
    pad: 1
    kernel_size: 3
    group: 1
    stride: 1
    weight_filler {
      type: "xavier"
    }
    bias_filler {
      type: "constant"
      value: 0.0
    }
  }
}
layer {
  name: "s1_relu3_1"
  type: "ReLU"
  bottom: "s1_conv3_1"
  top: "s1_conv3_1"
}
layer {
  name: "s1_batch3_1"
  type: "BatchNorm"
  bottom: "s1_conv3_1"
  top: "s1_batch3_1"
}
layer {
  name: "s1_conv3_2"
  type: "Convolution"
  bottom: "s1_batch3_1"
  top: "s1_conv3_2"
  convolution_param {
    num_output: 256
    pad: 1
    kernel_size: 3
    group: 1
    stride: 1
    weight_filler {
      type: "xavier"
    }
    bias_filler {
      type: "constant"
      value: 0.0
    }
  }
}
layer {
  name: "s1_relu3_2"
  type: "ReLU"
  bottom: "s1_conv3_2"
  top: "s1_conv3_2"
}
layer {
  name: "s1_batch3_2"
  type: "BatchNorm"
  bottom: "s1_conv3_2"
  top: "s1_batch3_2"
}
layer {
  name: "s1_pool3"
  type: "Pooling"
  bottom: "s1_batch3_2"
  top: "s1_pool3"
  pooling_param {
    pool: MAX
    kernel_size: 2
    stride: 2
  }
}
layer {
  name: "s1_conv4_1"
  type: "Convolution"
  bottom: "s1_pool3"
  top: "s1_conv4_1"
  convolution_param {
    num_output: 512
    pad: 1
    kernel_size: 3
    group: 1
    stride: 1
    weight_filler {
      type: "xavier"
    }
    bias_filler {
      type: "constant"
      value: 0.0
    }
  }
}
layer {
  name: "s1_relu4_1"
  type: "ReLU"
  bottom: "s1_conv4_1"
  top: "s1_conv4_1"
}
layer {
  name: "s1_batch4_1"
  type: "BatchNorm"
  bottom: "s1_conv4_1"
  top: "s1_batch4_1"
}
layer {
  name: "s1_conv4_2"
  type: "Convolution"
  bottom: "s1_batch4_1"
  top: "s1_conv4_2"
  convolution_param {
    num_output: 512
    pad: 1
    kernel_size: 3
    group: 1
    stride: 1
    weight_filler {
      type: "xavier"
    }
    bias_filler {
      type: "constant"
      value: 0.0
    }
  }
}
layer {
  name: "s1_relu4_2"
  type: "ReLU"
  bottom: "s1_conv4_2"
  top: "s1_conv4_2"
}
layer {
  name: "s1_batch4_2"
  type: "BatchNorm"
  bottom: "s1_conv4_2"
  top: "s1_batch4_2"
}
layer {
  name: "s1_fc1_dropout"
  type: "Pooling"
  bottom: "s1_batch4_2"
  top: "s1_fc1_dropout"
  pooling_param {
    pool: MAX
    kernel_size: 2
    stride: 2
  }
}
layer {
  name: "s1_fc1"
  type: "InnerProduct"
  bottom: "s1_fc1_dropout"
  top: "s1_fc1"
  inner_product_param {
    num_output: 256
    weight_filler {
      type: "xavier"
    }
    bias_filler {
      type: "constant"
      value: 0.0
    }
  }
}
layer {
  name: "s1_fc1_relu"
  type: "ReLU"
  bottom: "s1_fc1"
  top: "s1_fc1"
}
layer {
  name: "s1_fc1_batch"
  type: "BatchNorm"
  bottom: "s1_fc1"
  top: "s1_fc1_batch"
}
layer {
  name: "s1_output"
  type: "InnerProduct"
  bottom: "s1_fc1_batch"
  top: "s1_output"
  inner_product_param {
    num_output: 136
    weight_filler {
      type: "xavier"
    }
    bias_filler {
      type: "constant"
      value: 0.0
    }
  }
}
layer {
  name: "s1_landmarks"
  type: "Python"
  bottom: "s1_output"
  top: "s1_landmarks"
  python_param {
    module: "InitLandmark"
    layer: "InitLandmark"
    param_str: "{\'initlandmarks\': [[… "
  }
}
layer {
  name: "s1_transform_params"
  type: "Python"
  bottom: "s1_landmarks"
  top: "s1_transform_params"
  python_param {
    module: "TransformParamsLayer"
    layer: "TransformParamsLayer"
    param_str: "{\'mean_shape\': [[… "
  }
}
layer {
  name: "s1_img_output"
  type: "Python"
  bottom: "data"
  bottom: "s1_transform_params"
  top: "s1_img_output"
  python_param {
    module: "AffineTransformLayer"
    layer: "AffineTransformLayer"
  }
}
layer {
  name: "s1_landmarks_affine"
  type: "Python"
  bottom: "s1_landmarks"
  bottom: "s1_transform_params"
  top: "s1_landmarks_affine"
  python_param {
    module: "LandmarkTranFormLayer"
    layer: "LandmarkTranFormLayer"
    param_str: "{\'inverse\': False}"
  }
}
layer {
  name: "s1_img_heatmap"
  type: "Python"
  bottom: "s1_landmarks_affine"
  top: "s1_img_heatmap"
  python_param {
    module: "GetHeatMapLayer"
    layer: "GetHeatMapLayer"
  }
}
layer {
  name: "s1_img_feature1"
  type: "InnerProduct"
  bottom: "s1_fc1_batch"
  top: "s1_img_feature1"
  inner_product_param {
    num_output: 3136
    weight_filler {
      type: "xavier"
    }
    bias_filler {
      type: "constant"
      value: 0.0
    }
  }
}
layer {
  name: "s1_img_feature1_relu"
  type: "ReLU"
  bottom: "s1_img_feature1"
  top: "s1_img_feature1"
}
layer {
  name: "s1_img_feature2"
  type: "Reshape"
  bottom: "s1_img_feature1"
  top: "s1_img_feature2"
  reshape_param {
    shape {
      dim: -1
      dim: 1
      dim: 56
      dim: 56
    }
  }
}
layer {
  name: "s1_img_feature3"
  type: "Python"
  bottom: "s1_img_feature2"
  top: "s1_img_feature3"
  python_param {
    module: "Upscale2DLayer"
    layer: "Upscale2DLayer"
    param_str: "{\'scale_factor\': 2}"
  }
}
layer {
  name: "s2_input"
  type: "Concat"
  bottom: "s1_img_output"
  bottom: "s1_img_heatmap"
  bottom: "s1_img_feature3"
  top: "s2_input"
}
layer {
  name: "s2_input_batch"
  type: "BatchNorm"
  bottom: "s2_input"
  top: "s2_input_batch"
}
layer {
  name: "s2_conv1_1"
  type: "Convolution"
  bottom: "s2_input_batch"
  top: "s2_conv1_1"
  convolution_param {
    num_output: 64
    pad: 1
    kernel_size: 3
    group: 1
    stride: 1
    weight_filler {
      type: "xavier"
    }
    bias_filler {
      type: "constant"
      value: 0.0
    }
  }
}
layer {
  name: "s2_relu1_1"
  type: "ReLU"
  bottom: "s2_conv1_1"
  top: "s2_conv1_1"
}
layer {
  name: "s2_batch1_1"
  type: "BatchNorm"
  bottom: "s2_conv1_1"
  top: "s2_batch1_1"
}
layer {
  name: "s2_conv1_2"
  type: "Convolution"
  bottom: "s2_batch1_1"
  top: "s2_conv1_2"
  convolution_param {
    num_output: 64
    pad: 1
    kernel_size: 3
    group: 1
    stride: 1
    weight_filler {
      type: "xavier"
    }
    bias_filler {
      type: "constant"
      value: 0.0
    }
  }
}
layer {
  name: "s2_relu1_2"
  type: "ReLU"
  bottom: "s2_conv1_2"
  top: "s2_conv1_2"
}
layer {
  name: "s2_batch1_2"
  type: "BatchNorm"
  bottom: "s2_conv1_2"
  top: "s2_batch1_2"
}
layer {
  name: "s2_pool1"
  type: "Pooling"
  bottom: "s2_batch1_2"
  top: "s2_pool1"
  pooling_param {
    pool: MAX
    kernel_size: 2
    stride: 2
  }
}
layer {
  name: "s2_conv2_1"
  type: "Convolution"
  bottom: "s2_pool1"
  top: "s2_conv2_1"
  convolution_param {
    num_output: 128
    pad: 1
    kernel_size: 3
    group: 1
    stride: 1
    weight_filler {
      type: "xavier"
    }
    bias_filler {
      type: "constant"
      value: 0.0
    }
  }
}
layer {
  name: "s2_relu2_1"
  type: "ReLU"
  bottom: "s2_conv2_1"
  top: "s2_conv2_1"
}
layer {
  name: "s2_batch2_1"
  type: "BatchNorm"
  bottom: "s2_conv2_1"
  top: "s2_batch2_1"
}
layer {
  name: "s2_conv2_2"
  type: "Convolution"
  bottom: "s2_batch2_1"
  top: "s2_conv2_2"
  convolution_param {
    num_output: 128
    pad: 1
    kernel_size: 3
    group: 1
    stride: 1
    weight_filler {
      type: "xavier"
    }
    bias_filler {
      type: "constant"
      value: 0.0
    }
  }
}
layer {
  name: "s2_relu2_2"
  type: "ReLU"
  bottom: "s2_conv2_2"
  top: "s2_conv2_2"
}
layer {
  name: "s2_batch2_2"
  type: "BatchNorm"
  bottom: "s2_conv2_2"
  top: "s2_batch2_2"
}
layer {
  name: "s2_pool2"
  type: "Pooling"
  bottom: "s2_batch2_2"
  top: "s2_pool2"
  pooling_param {
    pool: MAX
    kernel_size: 2
    stride: 2
  }
}
layer {
  name: "s2_conv3_1"
  type: "Convolution"
  bottom: "s2_pool2"
  top: "s2_conv3_1"
  convolution_param {
    num_output: 256
    pad: 1
    kernel_size: 3
    group: 1
    stride: 1
    weight_filler {
      type: "xavier"
    }
    bias_filler {
      type: "constant"
      value: 0.0
    }
  }
}
layer {
  name: "s2_relu3_1"
  type: "ReLU"
  bottom: "s2_conv3_1"
  top: "s2_conv3_1"
}
layer {
  name: "s2_batch3_1"
  type: "BatchNorm"
  bottom: "s2_conv3_1"
  top: "s2_batch3_1"
}
layer {
  name: "s2_conv3_2"
  type: "Convolution"
  bottom: "s2_batch3_1"
  top: "s2_conv3_2"
  convolution_param {
    num_output: 256
    pad: 1
    kernel_size: 3
    group: 1
    stride: 1
    weight_filler {
      type: "xavier"
    }
    bias_filler {
      type: "constant"
      value: 0.0
    }
  }
}
layer {
  name: "s2_relu3_2"
  type: "ReLU"
  bottom: "s2_conv3_2"
  top: "s2_conv3_2"
}
layer {
  name: "s2_batch3_2"
  type: "BatchNorm"
  bottom: "s2_conv3_2"
  top: "s2_batch3_2"
}
layer {
  name: "s2_pool3"
  type: "Pooling"
  bottom: "s2_batch3_2"
  top: "s2_pool3"
  pooling_param {
    pool: MAX
    kernel_size: 2
    stride: 2
  }
}
layer {
  name: "s2_conv4_1"
  type: "Convolution"
  bottom: "s2_pool3"
  top: "s2_conv4_1"
  convolution_param {
    num_output: 512
    pad: 1
    kernel_size: 3
    group: 1
    stride: 1
    weight_filler {
      type: "xavier"
    }
    bias_filler {
      type: "constant"
      value: 0.0
    }
  }
}
layer {
  name: "s2_relu4_1"
  type: "ReLU"
  bottom: "s2_conv4_1"
  top: "s2_conv4_1"
}
layer {
  name: "s2_batch4_1"
  type: "BatchNorm"
  bottom: "s2_conv4_1"
  top: "s2_batch4_1"
}
layer {
  name: "s2_conv4_2"
  type: "Convolution"
  bottom: "s2_batch4_1"
  top: "s2_conv4_2"
  convolution_param {
    num_output: 512
    pad: 1
    kernel_size: 3
    group: 1
    stride: 1
    weight_filler {
      type: "xavier"
    }
    bias_filler {
      type: "constant"
      value: 0.0
    }
  }
}
layer {
  name: "s2_relu4_2"
  type: "ReLU"
  bottom: "s2_conv4_2"
  top: "s2_conv4_2"
}
layer {
  name: "s2_batch4_2"
  type: "BatchNorm"
  bottom: "s2_conv4_2"
  top: "s2_batch4_2"
}
layer {
  name: "s2_pool4"
  type: "Pooling"
  bottom: "s2_batch4_2"
  top: "s2_pool4"
  pooling_param {
    pool: MAX
    kernel_size: 2
    stride: 2
  }
}
layer {
  name: "s2_fc1_dropout"
  type: "Flatten"
  bottom: "s2_pool4"
  top: "s2_fc1_dropout"
}
layer {
  name: "s2_fc1"
  type: "InnerProduct"
  bottom: "s2_fc1_dropout"
  top: "s2_fc1"
  inner_product_param {
    num_output: 256
    weight_filler {
      type: "xavier"
    }
    bias_filler {
      type: "constant"
      value: 0.0
    }
  }
}
layer {
  name: "s2_fc1_relu"
  type: "ReLU"
  bottom: "s2_fc1"
  top: "s2_fc1"
}
layer {
  name: "s2_fc1_batch"
  type: "BatchNorm"
  bottom: "s2_fc1"
  top: "s2_fc1_batch"
}
layer {
  name: "s2_output"
  type: "InnerProduct"
  bottom: "s2_fc1_batch"
  top: "s2_output"
  inner_product_param {
    num_output: 136
    weight_filler {
      type: "xavier"
    }
    bias_filler {
      type: "constant"
      value: 0.0
    }
  }
}
layer {
  name: "Eltwise1"
  type: "Eltwise"
  bottom: "s2_output"
  bottom: "s1_landmarks_affine"
  top: "Eltwise1"
}
layer {
  name: "s2_landmarks"
  type: "Python"
  bottom: "Eltwise1"
  bottom: "s1_transform_params"
  top: "s2_landmarks"
  python_param {
    module: "LandmarkTranFormLayer"
    layer: "LandmarkTranFormLayer"
    param_str: "{\'inverse\': True}"
  }
}
layer {
  name: "loss"
  type: "Python"
  bottom: "s2_landmarks"
  bottom: "label"
  top: "loss"
  loss_weight: 1.0
  python_param {
    module: "SumOfSquaredLossLayer"
    layer: "SumOfSquaredLossLayer"
  }
}
